sicitlearn practice/cifar_net.pth (torch, 251604 bytes, 10 tensors)

conv1.weight f4 [6, 3, 5, 5]
0	0x3b0c2cfc	0.0021389117
1	0x3d2e208b	0.042511504
2	0xbd8af31e	-0.06784652
3	0xbe324436	-0.17408833
4	0xbda10164	-0.07861593
5	0x3cad6983	0.021168476
6	0xbde79726	-0.11308126
7	0xbe6c6199	-0.23084106
8	0xbdb216b0	-0.086957335
9	0xbdd63143	-0.10458615
10	0xbd0787f9	-0.033088658
11	0x3d3588ae	0.0443198
12	0x3e3dc304	0.18531424
13	0x3ca98afb	0.020696154
14	0x3c90d58f	0.017679958
15	0x3d76043d	0.060062636
16	0x3bd8e2ce	0.006618834
17	0xbcf0a776	-0.029376727
18	0xbc4b8d4b	-0.012423824
19	0xbd97bb6a	-0.07408793
20	0xbde25787	-0.11051851
21	0xbe14ffc7	-0.14550696
22	0xbe2cbc48	-0.16868699
23	0xbe5b2770	-0.21401763
24	0xbe47b16f	-0.1950128
25	0xbd379055	-0.04481538
26	0xbe1c1323	-0.15241675
27	0xbdc1b0a0	-0.09457517
28	0xbe636ef1	-0.2221029
29	0xbd9a3c22	-0.07531001
30	0xbe23a2e6	-0.1598011
31	0xbddb4606	-0.10706715
32	0xbe0347ef	-0.12820409
33	0xbe4dc8e6	-0.20096168
34	0xbe6faaff	-0.23405074
35	0x3e091a1c	0.13388866
36	0x3e05164e	0.1299679
37	0x3e88e2c3	0.26735505
38	0x3cded395	0.0272005
39	0xbdda829e	-0.106694445
40	0x3d7f4e3b	0.062330466
41	0x3e80e17c	0.2517203
42	0x3e0bd7e3	0.13656573
43	0x3d8ca0ef	0.06866633
44	0x3ceb9edb	0.028762272
45	0xbdce1b81	-0.1006384
46	0xbd8ae167	-0.06781273
47	0xbc3954d8	-0.011311732
48	0xbe1e0f10	-0.15435433
49	0xbdd84fd6	-0.105621025
50	0xbc68c28d	-0.014206541
51	0xbbe569d3	-0.0070011406
52	0x39d6edff	0.00040994582
53	0x3c894679	0.016757237
54	0xbd16403f	-0.036682364
55	0x3de899ce	0.11357461
56	0x3e085dd7	0.13317047
57	0xbd5e16d9	-0.054221008
58	0x3d5ded9a	0.054181673
59	0x3d4d4733	0.05011673
60	0x3e8202e2	0.25392824
61	0x3eccc9ab	0.3999761
62	0x3eb1f04d	0.34753647
63	0x3e86f882	0.2636147
64	0x3df1e2cf	0.118108384
65	0x3e8a7116	0.27039403
66	0x3ed45cc6	0.4147703
67	0x3eac036f	0.3359637
68	0x3e9b10a1	0.30286124
69	0x3e2fffd2	0.17187431
70	0x3d80d61a	0.06290837
71	0x3de2220c	0.1104165
72	0xbd2040ad	-0.03912418
73	0x3d97bac2	0.07408668
74	0xbc9010be	-0.017586108
75	0xbdbd50a7	-0.09243899
76	0xbdf03dda	-0.11730547
77	0xbe53362a	-0.2062613
78	0x3e3399e9	0.17539181
79	0x3ddd6584	0.10810378
80	0x3e5d9165	0.21637495
81	0x3c81f14b	0.015862128
82	0xbe8d2204	-0.27565014
83	0xbe635730	-0.22201228
84	0x3e3846be	0.17995736
85	0x3e023cbb	0.1271848
86	0x3e999f87	0.30004522
87	0xbe359a72	-0.17734697
88	0xbe546060	-0.20739889
89	0xbd8d984c	-0.06913814
90	0x3d5c79dc	0.05382715
91	0x3e4bbfb9	0.19897355
92	0xbcbd8de5	-0.02313895
93	0xbe559b18	-0.20859945
94	0x3d931b18	0.07182902
95	0x3e8e22f9	0.27761057
96	0x3cd2a657	0.025714083
97	0xbd2590b7	-0.040421214
98	0x3d74575b	0.05965362
99	0x3d9ed056	0.07754581
100	0x3d8f25a2	0.069896
101	0x3d3745cb	0.044744294
102	0xbe25f57d	-0.16206928
103	0x3bd9fab7	0.006652202
104	0x3e541777	0.20712076
105	0x3ec570ff	0.38562772
106	0x3e8b8396	0.2724883
107	0xbe7596fa	-0.23983374
108	0xbc3fa05b	-0.011695947
109	0xbc8a1529	-0.016855793
110	0x3e52c724	0.20583779
111	0x3ebc3a75	0.3676335
112	0x3ddce240	0.10785341
113	0xbe56b442	-0.209672
114	0xbd435f86	-0.04769852
115	0x3eae3361	0.34023574
116	0x3e9076ce	0.2821564
117	0x3daee61d	0.085399844
118	0xbe401453	-0.18757753
119	0x3e1b0f4c	0.15142554
120	0x3e992794	0.29913008
121	0x3c98b2e8	0.018639997
122	0xbda37f1d	-0.07983229
123	0x3e1ef223	0.15522055
124	0x3db30310	0.087408185
125	0xbd002a5f	-0.03129041
126	0xbe68d342	-0.22736838
127	0xbeb7a2cf	-0.358664
128	0xbdee728a	-0.1164294
129	0xbdc1139b	-0.094275676
130	0x3e7ebbd1	0.24876334
131	0x3d730a4c	0.05933599
132	0xbebd63f7	-0.3699033
133	0xbe4b68a4	-0.19864136
134	0xbcf8e9e4	-0.030384965
135	0x3d886af2	0.06661023
136	0x3e50d45b	0.20393507
137	0xbe5a0a0a	-0.21292892
138	0xbec33be3	-0.38131627
139	0xbe45d081	-0.19317819
140	0x3d2e053d	0.042485464
141	0x3dfa95c4	0.12235597
142	0xbe20f98d	-0.15720196
143	0xbecb802f	-0.39746234
144	0xbdd67027	-0.1047061
145	0x3e14b977	0.14523874
146	0xbca16fda	-0.019706655
147	0xbe66125e	-0.22467944
148	0xbcfed083	-0.031105286
149	0xbbd3857e	-0.0064551225
150	0x3e4a9d63	0.19786601
151	0x3e9d9f66	0.30785674
152	0x3d6fb73a	0.058524348
153	0x3c1e11b7	0.009647778
154	0xbe0a7128	-0.13519728
155	0xbe9d7c2a	-0.30758792
156	0xbf131b64	-0.5746367
157	0xbf25b037	-0.6472201
158	0xbf138b54	-0.5763447
159	0xbec96eed	-0.39342442
160	0xbdb8c6fb	-0.090223275
161	0xbe10a109	-0.1412393
162	0xbe4780b1	-0.19482686
163	0x3dd87f8e	0.10571204
164	0x3d8087d0	0.06275904
165	0x3e09107c	0.13385195
166	0x3e959f92	0.29223305
167	0x3ed656ea	0.41863185
168	0x3ed8bf94	0.42333663
169	0x3ea110fa	0.31458265
170	0x3d93afb0	0.07211244
171	0x3e004b89	0.12528814
172	0x3e5e98ee	0.21738026
173	0xbc469ac7	-0.012121863
174	0xbd3f85b0	-0.046758354
175	0x3e910c5d	0.28329745
176	0x3e9b8d4b	0.30381235
177	0x3ea0e516	0.3142478
178	0x3e040fe5	0.12896688
179	0x3e929b88	0.28634286
180	0xbe1d748b	-0.15376489
181	0xbef09394	-0.46987593
182	0xbf0d3c2a	-0.5516993
183	0xbee3e0e0	-0.44507504
184	0xbe670b75	-0.22562964
185	0xbe260bcd	-0.16215439
186	0xbd6810e4	-0.056656733
187	0x3cd6437b	0.026155224
188	0x3e3cf5a8	0.18453085
189	0x3e31724c	0.17328757
190	0x3e1cf62d	0.15328284
191	0x3e4b689e	0.19864127
192	0x3eadacc4	0.33920872
193	0x3ecc9b72	0.39962345
194	0x3d54f8d9	0.051995132
195	0xbce17b82	-0.027524713
196	0x3e01c0e5	0.1267124
197	0x3d684b80	0.056712627
198	0x3dd3e019	0.103454776
199	0xbdf189f9	-0.11793894
200	0x3ecf8379	0.40529993
201	0x3ee6095d	0.4492902
202	0x3e910fa0	0.28332233
203	0x3eb2c43b	0.34915337
204	0x3dec0346	0.11524062
205	0xbe44628c	-0.19178218
206	0xbe77d468	-0.2420212
207	0xbede7a32	-0.43452603
208	0xbec6e8f8	-0.38849616
209	0xbd5e5683	-0.054281723
210	0xbe6d44dc	-0.23170799
211	0xbe1c859a	-0.1528534
212	0xbe15e21f	-0.1463704
213	0xbd875eda	-0.066098884
214	0x3d1bfd24	0.03808321
215	0xbd6450a7	-0.05574098
216	0x3e31c628	0.17360747
217	0x3e06e201	0.13172151
218	0x3e36dd4e	0.17857859
219	0xbe0b2113	-0.13586836
220	0xbdb4e7df	-0.088332884
221	0x3d4c28a4	0.049843445
222	0xbda21c98	-0.0791561
223	0xbdbc1355	-0.09183375
224	0xbe9ad768	-0.30242467
225	0xbe39886d	-0.18118449
226	0xbcff01cd	-0.031128788
227	0xbc9a7cd3	-0.018858349
228	0xbe6aa6e5	-0.22915228
229	0xbe3c0c74	-0.18364125
230	0xbb6a90e7	-0.0035791935
231	0x3e366ba1	0.17814495
232	0x3e13c22f	0.14429544
233	0x3e261a98	0.16221082
234	0x3e52a34c	0.20570105
235	0x3e8b3d13	0.27195033
236	0x3e919de4	0.28440773
237	0x3ee19d58	0.44065356
238	0x3e8204f6	0.2539441
239	0x3e6be69d	0.2303719
240	0x3e56583c	0.20932096
241	0x3e9d2115	0.30689302
242	0x3e87e762	0.2654372
243	0x3ea0fffc	0.314453
244	0x3ea33ddc	0.31883132
245	0x3c34ef45	0.011043374
246	0xbca2e72c	-0.019885622
247	0x3da49b18	0.08037394
248	0x3dfe77fb	0.12425228
249	0x3dc7c78e	0.09754859
250	0x3dbd9cf2	0.092584506
251	0xbdb7ee21	-0.08980966
252	0xbdb0225f	-0.08600306
253	0xbd91d4f8	-0.07120699
254	0x3dca79a8	0.09886485
255	0x3d7e119f	0.062028524

conv1.bias f4 [6]
0	0x3e0089e6	0.12552604
1	0x3c4d4f00	0.012531042
2	0xbe201255	-0.15631993
3	0xbf55d72d	-0.8353146
4	0xbe7c2c23	-0.24626212
5	0x3e033dcc	0.12816542

conv2.weight f4 [16, 6, 5, 5]
0	0x3e3bcfa4	0.18340927
1	0x3e1dd617	0.154137
2	0x3c441641	0.011968196
3	0xbc35a175	-0.011085858
4	0xbe17e161	-0.14832069
5	0x3c932206	0.01796056
6	0xbe0f4d70	-0.13994384
7	0x3ca41330	0.02002868
8	0x3dffe1c5	0.12494234
9	0xbd0d42e1	-0.03448761
10	0x3dde0ea8	0.10842639
11	0xbbd9098b	-0.006623452
12	0xbe4f035d	-0.20216127
13	0xbe40c27d	-0.18824191
14	0xbca1a009	-0.019729631
15	0x3d5518f9	0.05202577
16	0x3d8e16b2	0.069379225
17	0x3c276046	0.0102158245
18	0x3d8f1f89	0.06988437
19	0x3ca8ac22	0.020589892
20	0x3dc0cb51	0.094137795
21	0x3d3740e8	0.044739634
22	0x3c3dcefd	0.011584994
23	0x3a4a33b9	0.0007713396
24	0xbd51a18c	-0.051179454
25	0x3e400874	0.18753225
26	0x3e4fb2ad	0.20283003
27	0x3e3f849d	0.18702932
28	0x3c507c15	0.012724896
29	0xbc16ffa4	-0.009216223
30	0xbd070f0d	-0.032973338
31	0xbe8a246a	-0.26980907
32	0xbe2fb6c2	-0.1715956
33	0xbb7c5e14	-0.0038508223
34	0xbb81f7f1	-0.0039663245
35	0xbd443561	-0.04790247
36	0xbe3d389f	-0.1847863
37	0xbe4f57aa	-0.20248285
38	0xbe67bc67	-0.22630464
39	0xbde00864	-0.109391004
40	0x3dce6c24	0.1007922
41	0xbd3a307f	-0.045456406
42	0xbd883ca9	-0.06652195
43	0xbdd9d6d0	-0.10636675
44	0xbe18177a	-0.14852706
45	0xbe21e11d	-0.1580853
46	0xbd3911ad	-0.045182873
47	0xbd39b1fc	-0.045335755
48	0xbda847c8	-0.08216816
49	0xbd63330e	-0.05546861
50	0x3daeba31	0.08531607
51	0x3e15502e	0.14581367
52	0x3e4c06bf	0.19924448
53	0x3e313f8f	0.17309402
54	0x3c6fa03d	0.014625606
55	0x3d73ee5d	0.059553493
56	0x3caed7f2	0.021343205
57	0x3d4062de	0.046969287
58	0x3deed702	0.11662103
59	0x3e8f6378	0.28005576
60	0x3d1c7a9e	0.038202874
61	0x3de58b7c	0.11208245
62	0x3dca9b7c	0.098929375
63	0x3dc9b41f	0.098488085
64	0xbb18151f	-0.0023205949
65	0xbbf97288	-0.00761253
66	0x3d4f33e1	0.050586585
67	0xbbedf7cf	-0.007262207
68	0xbd6b9d26	-0.057522915
69	0x3d5606b6	0.052252494
70	0xbde5cc56	-0.112206146
71	0xbd05c233	-0.032655906
72	0xbdb3c2fd	-0.087774254
73	0xbdd0af3a	-0.10189672
74	0xbd084b32	-0.033274837
75	0x3d9094d5	0.070596375
76	0x3dc27592	0.09495081
77	0x3d3fbabc	0.046808943
78	0x3b298d14	0.0025871443
79	0x3c0226d1	0.007943825
80	0x3d958e6e	0.07302557
81	0x3e1bae1e	0.15203139
82	0x3db41bf5	0.08794395
83	0x3e068dd6	0.13140044
84	0x3e1c30b4	0.15252954
85	0x3e3fdab7	0.18735777
86	0x3e39c86c	0.18142861
87	0x3e39eb8d	0.18156262
88	0x3d80f4c1	0.06296683
89	0x3dd5e3b5	0.10443822
90	0x3d47a6dc	0.048743114
91	0xbc09b0ab	-0.008403937
92	0x3e16a7e1	0.14712478
93	0x3c8a38d8	0.016872808
94	0x3db197b9	0.08671517
95	0x3c25005e	0.010070888
96	0xbccb5697	-0.024821563
97	0xbda73f79	-0.08166403
98	0xbc37c3b5	-0.011216094
99	0xbd87ab86	-0.066245124
100	0xbda814a2	-0.082070604
101	0xbdce017b	-0.10058876
102	0xbe3e1a28	-0.18564665
103	0xbe924b9f	-0.2857332
104	0xbe6a7227	-0.22895108
105	0xbd638eec	-0.055556223
106	0xbdb7e321	-0.08978868
107	0xbdb0e61f	-0.08637642
108	0xbd89b513	-0.0672399
109	0xbd941dea	-0.07232268
110	0x3c2ddc93	0.010611671
111	0x3b560022	0.0032653888
112	0xbd35f350	-0.044421494
113	0xbd4fd4f0	-0.050740182
114	0xbdcc9010	-0.09988415
115	0xbd663588	-0.056203395
116	0xbd106226	-0.03524985
117	0xbca85d35	-0.020552257
118	0xbd4d09b8	-0.050058097
119	0xbcf5b628	-0.029994085
120	0xbddb9205	-0.107212104
121	0xbdf95a60	-0.12175441
122	0xbdd5f45a	-0.10446997
123	0xbdf12fc6	-0.1177669
124	0xbe1d5f69	-0.15368427
125	0xbe73460b	-0.23757188
126	0xbe538f8f	-0.20660232
127	0xbe3d7df9	-0.18505086
128	0xbd31137e	-0.04323148
129	0x3d1c9830	0.038231075
130	0xbe14babe	-0.14524361
131	0xbda0c553	-0.078501366
132	0xbd8ae611	-0.06782163
133	0xbd42ffe6	-0.047607325
134	0x3d98ad5e	0.07454942
135	0xbd6b7503	-0.057484638
136	0x3cbc5d32	0.022993658
137	0xbcdf12c7	-0.027230633
138	0xbcc2697b	-0.023731938
139	0x3d8bb6f1	0.06822003
140	0x3df368e6	0.11885242
141	0x3c5f7b5b	0.01364025
142	0x3e0d5c99	0.13804854
143	0x3d425158	0.047440857
144	0x3e31134d	0.17292519
145	0x3e3be464	0.18348843
146	0x3e2c313e	0.1681566
147	0x3e5e1608	0.21688092
148	0x3e485a55	0.19565709
149	0x3eb1e454	0.34744513
150	0x3e12ef2d	0.14349051
151	0x3e4dfb81	0.20115472
152	0x3de26709	0.11054809
153	0x3de7723b	0.113010846
154	0x3d4e5ff5	0.05038448
155	0xbdee9eba	-0.116513684
156	0x3bf99eea	0.007617821
157	0x3e15e38d	0.14637585
158	0x3c14b2b2	0.009075807
159	0x3d3f1892	0.04665429
160	0xbe4d5f10	-0.20055795
161	0xbe88be83	-0.2670785
162	0xbdbc317d	-0.09189127
163	0x3d9e1879	0.077195115
164	0x3c145820	0.009054214
165	0xbd032840	-0.032020807
166	0xbdc20bc7	-0.094749026
167	0xbe3d29fd	-0.18473049
168	0xbca91335	-0.020639041
169	0xbc453e99	-0.01203885
170	0x3d90545d	0.07047341
171	0x3da19a55	0.078907646
172	0x3c37cd49	0.011218377
173	0x3c61ef78	0.013790004
174	0xbe1b92a6	-0.1519266
175	0xbec5b3b8	-0.38613677
176	0xbdd1c3ac	-0.102423996
177	0xbd932b37	-0.07185977
178	0x3cbc141c	0.022958808
179	0x3d48b05b	0.04899631
180	0xbd634ac9	-0.055491243
181	0xbec36bce	-0.38168186
182	0xbda932af	-0.0826162
183	0x3e50dfad	0.20397826
184	0x3e3da787	0.18520938
185	0x3ec4bf53	0.3842722
186	0xbe35a796	-0.1773971
187	0xbeaeac5b	-0.34115872
188	0x3c1b14c6	0.009465402
189	0x3dc3ef4b	0.09567126
190	0x3ee01619	0.4376686
191	0x3dc5f7c1	0.09666396
192	0xbdec6550	-0.11542761
193	0xbe3bef67	-0.18353043
194	0xbdc82166	-0.09771995
195	0x3e0ea2d2	0.13929299
196	0x3e414c7a	0.1887683
197	0x3e7a398b	0.24436013
198	0x3dd71eae	0.105038986
199	0xbd822608	-0.0635491
200	0x3bffdc03	0.00780821
201	0x3d361a0d	0.044458438
202	0xbb9c63aa	-0.004772623
203	0x3cc08f3e	0.023505803
204	0xbc15e9d1	-0.009149984
205	0x3c8d4657	0.017245455
206	0xbe04ead9	-0.12980212
207	0xbcdab63e	-0.026698228
208	0x3cc755be	0.024332877
209	0xbca7eb36	-0.0204979
210	0x3e3e6347	0.18592559
211	0x3ad62064	0.0016336557
212	0xbe6aecb3	-0.22941856
213	0xbe1b0c87	-0.15141498
214	0xbd2a2e5b	-0.041548114
215	0xbb491d50	-0.0030687638
216	0x3d576174	0.052583173
217	0x3b50891d	0.0031820007
218	0xbd48f5b6	-0.049062453
219	0xbe2274f8	-0.15864933
220	0xbe0afb05	-0.13572319
221	0x3d61af49	0.055098806
222	0x3ce063ba	0.027391303
223	0x3dffb069	0.124848194
224	0x3ca59f6b	0.020217618
225	0x3c043a98	0.00807061
226	0x3d9162c1	0.07098914
227	0x3e339c12	0.17540005
228	0x3d39ba02	0.045343406
229	0x3d359564	0.044331923
230	0xbc0cfc2b	-0.008605043
231	0x3d5721a7	0.052522328
232	0x3ddc557d	0.10758493
233	0xbc5c0539	-0.01342898
234	0xbbf1dd0f	-0.0073810886
235	0xbdf1eb5c	-0.11812469
236	0xbdd59557	-0.10428875
237	0x3c9aa319	0.0188766
238	0x3d3174a8	0.043324143
239	0x3d2ff955	0.04296239
240	0xbe1e2c3b	-0.1544656
241	0xbcd86217	-0.02641396
242	0xbd99d673	-0.07511606
243	0x3de125fb	0.10993572
244	0x3c7ee394	0.015557189
245	0xbd8274d7	-0.06369942
246	0xbdbab41d	-0.09116385
247	0xbdb22e91	-0.08700288
248	0x3d9b3086	0.075776145
249	0x3dd2a85f	0.102860205
250	0x3dcb9810	0.09941113
251	0xbd7c1bc4	-0.061549917
252	0xbd530f6f	-0.05152839
253	0xbe0b319d	-0.13593145
254	0xbdb8904d	-0.09011898
255	0x3dafe6a9	0.08588917

conv2.bias f4 [16]
0	0x3e79b617	0.24385868
1	0xbf038e9e	-0.5138949
2	0x3e267015	0.16253693
3	0x3f2b6613	0.6695263
4	0x3dcf18db	0.10112163
5	0x3daa757a	0.08323188
6	0xbea77282	-0.3270455
7	0x3ec05d3e	0.37571138
8	0xbdc56b7d	-0.096396424
9	0xbd163151	-0.036668126
10	0xbe897be0	-0.26852322
11	0xbe90adef	-0.282577
12	0x3f09755b	0.53694695
13	0xbf152377	-0.5825724
14	0x3dcf276b	0.1011494
15	0x3d986c3f	0.07442521

fc1.weight f4 [120, 400]
0	0x3c02dd51	0.007987336
1	0x3d1586ae	0.036505394
2	0xbd1d61b9	-0.038423274
3	0xbd1a7827	-0.037712242
4	0x3cc44562	0.023958866
5	0x3d6844f7	0.056706395
6	0x3c8c6800	0.017139435
7	0xbc6c8f96	-0.01443853
8	0x3d8e7160	0.06955218
9	0x3cbed613	0.023295438
10	0x3c8d0816	0.01721577
11	0x3d73696c	0.05942671
12	0x3cf539cf	0.029934792
13	0x3d89adbb	0.067225896
14	0xbbb3c700	-0.005486369
15	0x3bac2bf2	0.005254262
16	0xbcc26b5a	-0.02373283
17	0xbd685294	-0.056719378
18	0xbd772b36	-0.060343944
19	0xbdcaca53	-0.099018715
20	0x3d044ec8	0.032301694
21	0xbd4d5220	-0.05012715
22	0xbd619f44	-0.05508353
23	0xbd768e73	-0.060194444
24	0xbd4aeccb	-0.04954223
25	0xbd7b9b4c	-0.0614274
26	0xbd6f6506	-0.058445953
27	0xbdb7a454	-0.0896689
28	0xbdcc4cb7	-0.0997557
29	0x3cba60de	0.022751268
30	0xbcef7de1	-0.029234828
31	0x3bb069ac	0.005383691
32	0xbd4bc5da	-0.049749233
33	0xbcca1194	-0.024666585
34	0xbc2df0cd	-0.010616493
35	0x3cb88606	0.022524845
36	0x3d66442f	0.05621737
37	0x3d4a6385	0.049411315
38	0x3c17165f	0.009221642
39	0xbc54e9ed	-0.012995225
40	0x3d83d00d	0.06436167
41	0x3db0fc3b	0.08641859
42	0x3d392a39	0.045206282
43	0x3cd55d6d	0.026045525
44	0x3c8190f5	0.015816191
45	0xbc5c1fd1	-0.01343532
46	0xbca1e8e4	-0.019764371
47	0x3d3ad929	0.045617256
48	0xbc1ff9b2	-0.009764122
49	0xbb9356ab	-0.0044964156
50	0x3c6d6596	0.014489552
51	0x3ca1c9a9	0.01974948
52	0xbc994c21	-0.018713059
53	0xbc2691e7	-0.010166622
54	0xbbc84e42	-0.0061128447
55	0xbb03f688	-0.0020135958
56	0x3c646958	0.0139411315
57	0xbd7280c1	-0.05920482
58	0xbd2c1954	-0.042016342
59	0x3b0e7fbe	0.002174362
60	0x3d3653e6	0.044513606
61	0x3d54fb15	0.051997263
62	0x3d6878ae	0.056755714
63	0xbd1e449f	-0.03863966
64	0x3d480ffe	0.048843376
65	0x3d5f3d0f	0.05450159
66	0x3daa8baa	0.0832742
67	0x3d9a3fa6	0.07531671
68	0x3daa7c74	0.08324519
69	0x3d2b1dd7	0.041776504
70	0xbd1c479d	-0.038154233
71	0x3cea1a76	0.02857707
72	0x3dce638c	0.10077581
73	0x3d304719	0.043036554
74	0x3d939bc7	0.072074465
75	0x3c90ae51	0.017661246
76	0xbd30b55f	-0.04314172
77	0x3d052b6f	0.032512125
78	0x3d39707e	0.045273297
79	0x3cde2399	0.027116584
80	0xbd0c7d51	-0.0342992
81	0x3d8e6536	0.06952898
82	0x3daf12f6	0.085485384
83	0x3d5258b2	0.051354118
84	0xba12f2b2	-0.00056056224
85	0x39230a0a	0.00015548631
86	0xbb806880	-0.0039187074
87	0x3d81752b	0.06321176
88	0xbd143ccd	-0.036190797
89	0x3d3d2145	0.046174306
90	0x3c2e3dbe	0.010634838
91	0xbc2db07b	-0.010601158
92	0xbc5844aa	-0.013199965
93	0xbb1e739a	-0.002417779
94	0x3b08f4c0	0.0020897835
95	0x3da36a8d	0.07979307
96	0x3d59dcf1	0.05318922
97	0x3c47ddfa	0.012198919
98	0x3cd0d3f5	0.025491694
99	0x3bda05fb	0.006653545
100	0x3d4f7bc0	0.050655127
101	0xbd277be2	-0.04088963
102	0x3bfdb291	0.007742234
103	0xbb4ff405	-0.003173114
104	0xbd178922	-0.036996014
105	0xbd3dc035	-0.04632588
106	0x3c594f5b	0.013263549
107	0xbd342713	-0.043982577
108	0xbce00e73	-0.02735064
109	0x3ceb205f	0.02870196
110	0xbd693a95	-0.056940634
111	0x3cc00474	0.023439623
112	0xbd636c7d	-0.055523384
113	0xbd41153f	-0.047139402
114	0xbcbace27	-0.02280338
115	0x3c9e3b11	0.019315274
116	0xbd06db60	-0.032924056
117	0x3d250962	0.04029215
118	0xbd2d9b31	-0.04238433
119	0xbca1dbd0	-0.019758135
120	0xbd4f87ae	-0.050666504
121	0x3c2360fe	0.009971855
122	0xbd899f89	-0.06719882
123	0xbd4984d8	-0.049198955
124	0xbd0b50e1	-0.03401268
125	0xbd4dd091	-0.050247733
126	0xbd8e9a03	-0.06962969
127	0x3c505684	0.012715939
128	0xbcd097c6	-0.025462996
129	0x3cc8b85c	0.024501972
130	0xbca47192	-0.020073686
131	0xbaa67e85	-0.0012702501
132	0xbd4833d8	-0.048877567
133	0xbd2fc4fb	-0.042912465
134	0xbb107875	-0.0022044454
135	0xbd7316cc	-0.059347913
136	0xbd876e79	-0.06612868
137	0x3b03c4cc	0.0020106314
138	0xbc5c6e43	-0.013454023
139	0xbd9295b3	-0.07157459
140	0xbd84677a	-0.06465049
141	0xbcffe39a	-0.031236459
142	0x3bc50713	0.006012806
143	0xbca218b8	-0.019787177
144	0xbd4fcb34	-0.0507309
145	0xbdb0fa11	-0.086414464
146	0xbd21d740	-0.03951192
147	0xbd9f5786	-0.07780366
148	0xbdce5ad9	-0.100759216
149	0xbd1f9656	-0.03896173
150	0x3caa7ccd	0.020811463
151	0x3d83d081	0.06436253
152	0x3d7852f8	0.060626
153	0x3c86d21c	0.01645761
154	0x3ce0c626	0.027438235
155	0x3d3c6d65	0.046002764
156	0xbc77ef35	-0.015132715
157	0xbd47ccb3	-0.0487792
158	0xbd8b3c24	-0.0679858
159	0xbae82a09	-0.0017712723
160	0x3cd47f4a	0.025939602
161	0x3cca5901	0.024700643
162	0xbd284b3c	-0.041087374
163	0xbcc7d142	-0.024391774
164	0xbcda43eb	-0.026643714
165	0x3d1af77d	0.03783368
166	0x3d88af2b	0.06674036
167	0xbc807b16	-0.015683692
168	0x3dc2274e	0.09480153
169	0x3d0a61ad	0.033784557
170	0xbda83d50	-0.082148194
171	0x3d381455	0.044941265
172	0xbd66496d	-0.056222368
173	0xbcadd727	-0.021220757
174	0x3ce15482	0.027506117
175	0xbd9a945c	-0.075478286
176	0x3d151da1	0.03640521
177	0x3c1f1757	0.0097101545
178	0xbcc87e2a	-0.024474222
179	0xbd2437bd	-0.04009222
180	0xbcf214ba	-0.029550899
181	0x3cba9bb3	0.022779321
182	0xbac408b1	-0.0014956204
183	0xbd675320	-0.05647576
184	0xbdbfba15	-0.09361664
185	0xbd5e73c6	-0.05430963
186	0x3cb25ce2	0.021772806
187	0x3cd025d4	0.025408663
188	0xbccda7c0	-0.025104403
189	0xbd3ca8b0	-0.04605931
190	0xbce95d26	-0.0284868
191	0xbc5ae662	-0.013360592
192	0x3c9824c3	0.018572217
193	0xbcc0c208	-0.023530021
194	0x3c6d1bd2	0.014471965
195	0x3cb2b9e5	0.021817157
196	0x3d083d90	0.033261836
197	0xbd072b27	-0.033000138
198	0x3d5227e3	0.05130757
199	0x3b7873dc	0.0037910854
200	0x3babe00e	0.0052452153
201	0x3c8f8ed4	0.01752416
202	0x3d22bc69	0.039730463
203	0x3d116072	0.035492368
204	0xbd131862	-0.035911925
205	0x3b7f8829	0.003899107
206	0xbc3defe6	-0.011592841
207	0x3d589b2e	0.052882366
208	0x3d297ad3	0.0413769
209	0x3d4bd9f9	0.04976842
210	0xbc720d69	-0.014773705
211	0xbd1612df	-0.03663909
212	0xbd466fb0	-0.048446357
213	0xbd588e15	-0.052869875
214	0xbac0c722	-0.0014707784
215	0x3d29e2bf	0.041476008
216	0xbd23ce22	-0.039991505
217	0xbb6638aa	-0.003512899
218	0xba51f68a	-0.00080094545
219	0xbc82b613	-0.01595596
220	0x3d1f086b	0.038826387
221	0x3ce15fe3	0.027511543
222	0x3d524e0a	0.051343955
223	0x3cb99207	0.02265264
224	0x3d3a016a	0.045411505
225	0x3c645097	0.01393523
226	0xbcbb10a9	-0.022835093
227	0xbbe56944	-0.007001074
228	0x3d233e5e	0.0398544
229	0x3c386a5e	0.011255829
230	0x3ccec31a	0.025239516
231	0xbccf0198	-0.025269315
232	0x3ce7cc75	0.028295735
233	0x3d4a1540	0.04933667
234	0x3c7be2a0	0.015373856
235	0x3b94c6a2	0.0045402804
236	0x3cf754e3	0.030191844
237	0xbcf07094	-0.029350556
238	0x3c72f5d1	0.014829115
239	0x3d3b1e15	0.045682985
240	0x3b47d986	0.0030494644
241	0x3c9f5da3	0.01945383
242	0xbc0ed346	-0.008717364
243	0xbcc1a183	-0.023636585
244	0xbc2b4b75	-0.010455002
245	0x3ca04229	0.019562798
246	0x3c91d9ba	0.017804015
247	0xbc869b74	-0.016431548
248	0xbd483e80	-0.04888773
249	0x3cb76f81	0.022392036
250	0x3c004d2a	0.007830897
251	0xbd4f41f8	-0.050600022
252	0x3c68f41f	0.014218359
253	0x3cbfeed9	0.023429321
254	0xbd3e2090	-0.046417773
255	0x3cbff5d9	0.023432659

fc1.bias f4 [120]
0	0x3d94d4e1	0.07267166
1	0xbce24369	-0.027620034
2	0xbd9b0bb4	-0.075705916
3	0xbc0b7eab	-0.008514087
4	0x3db77495	0.08957783
5	0x3decdf99	0.11566085
6	0x3e308fd3	0.17242365
7	0x3e2a8b70	0.16654754
8	0xbd3bd323	-0.045855653
9	0xbc8c9c4e	-0.017164376
10	0x3cd80932	0.026371572
11	0x3ddba25d	0.10724328
12	0xbc9e8ef9	-0.019355284
13	0xbd160ae2	-0.036631472
14	0xbd8dcda7	-0.06923991
15	0x3ccb9488	0.024851099
16	0x3daafc71	0.083489306
17	0x3d99b47e	0.07505129
18	0xbd80e2d1	-0.06293262
19	0x3df6d340	0.120520115
20	0xbd76a138	-0.060212344
21	0xbd1b4c11	-0.03791434
22	0x3e298c7e	0.165575
23	0x3d7328ac	0.05936496
24	0x3d0bf8b3	0.034172725
25	0xbdd6d8f0	-0.10490596
26	0xbdcedad3	-0.10100331
27	0x3dc25ce2	0.09490372
28	0xbcf0d413	-0.029398
29	0x3cd2a035	0.025711158
30	0x3d3a9e80	0.045561314
31	0x3d880543	0.066416286
32	0xbdd3fafc	-0.10350606
33	0x3ca43d9d	0.02004891
34	0x3bc36d70	0.0059639737
35	0x3cc5fcb7	0.024168355
36	0x3cb4492e	0.022007551
37	0xbd1bd576	-0.03804537
38	0xbc77ce70	-0.015124902
39	0x3d800c9d	0.06252406
40	0x3e3b5b44	0.18296534
41	0x3d9c82f7	0.07642167
42	0x3defb7f2	0.11705007
43	0x3e52ec20	0.20597887
44	0xbda2cb30	-0.07948911
45	0xbcfd2263	-0.030900186
46	0x3e524107	0.20532618
47	0x3cac13b7	0.021005495
48	0xbd49d458	-0.049274772
49	0xbd8afce8	-0.06786519
50	0xbc370ffa	-0.011173243
51	0x3d2e6bc8	0.042583257
52	0xbe1c1eda	-0.15246144
53	0x3e070767	0.13186418
54	0xbd1b02e3	-0.03784455
55	0xbd7dc272	-0.061953016
56	0xbd5fb8dd	-0.05461966
57	0x3cc481e1	0.023987712
58	0xbc733088	-0.014843114
59	0x3ada9fd9	0.0016679718
60	0x3e0a72ef	0.13520406
61	0xbd4529b6	-0.04813548
62	0x3da0608a	0.07830913
63	0xbc2addf1	-0.0104288915
64	0xbe01db68	-0.12681353
65	0x3d94ff2e	0.07275234
66	0x3dac9ce1	0.0842836
67	0x3d95eb40	0.07320261
68	0x3c84bd9e	0.016203698
69	0x3c99685d	0.018726522
70	0x3b887f49	0.004165564
71	0xbde64065	-0.11242751
72	0x3cc7c0b7	0.024383886
73	0x3d8b5a6a	0.068043545
74	0xbd338c19	-0.04383478
75	0xbd768f86	-0.06019547
76	0x3dac6b6e	0.08418928
77	0xbe37b96b	-0.17941825
78	0x3d089761	0.03334749
79	0x3d8a9c82	0.06768133
80	0xbd3d37de	-0.046195857
81	0x3d811620	0.06303048
82	0x3cef10c9	0.029182808
83	0x3bbf0df9	0.005830523
84	0x3d5fe993	0.054666113
85	0xbc8b41a4	-0.016999073
86	0x3dd9c3ad	0.10633025
87	0x3db727e3	0.08943155
88	0x3df6cdc0	0.120509624
89	0xbba433eb	-0.005011072
90	0xbddfc95a	-0.10927077
91	0xbd389ab7	-0.045069423
92	0xbd338bc8	-0.043834478
93	0x3e3c788d	0.18405361
94	0x3cc6d280	0.024270296
95	0xbd361563	-0.04445399
96	0x3dba4a54	0.09096208
97	0x3c9b5b4e	0.018964436
98	0x3b8e2a38	0.004338529
99	0x3c6439a0	0.0139297545
100	0xbd29c9eb	-0.04145233
101	0xbcf31053	-0.02967087
102	0xbbab084f	-0.0052194963
103	0x3d5e2e45	0.054243345
104	0xbd566a3a	-0.0523474
105	0x3d2def46	0.042464517
106	0x3d69e35c	0.057101592
107	0x3bf283c3	0.007400961
108	0x3d6bceeb	0.05757038
109	0x3e32d6b9	0.17464723
110	0xbc04f0cd	-0.008114052
111	0x3da8e11d	0.08246062
112	0x3d720db5	0.059095103
113	0xbd01c2e9	-0.03168002
114	0xbde769dc	-0.11299488
115	0xbd3b72f3	-0.04576392
116	0xbd5b7bb4	-0.05358477
117	0x3cb2bcfd	0.021818632
118	0x3cd00aea	0.02539583
119	0xbbc81ae8	-0.006106723

fc2.weight f4 [84, 120]
0	0xbd30f588	-0.043202907
1	0xbc6928ed	-0.014230949
2	0x3d36dd18	0.044644445
3	0x3c90606a	0.017624099
4	0xbd944d70	-0.072413325
5	0xbd5527a2	-0.05203975
6	0xbdbdaa96	-0.09261052
7	0xbd10e9f7	-0.035379376
8	0x3c8ffabb	0.017575612
9	0x3c16d9bb	0.009207184
10	0x3d8b3981	0.067980774
11	0x3d7bb176	0.061448537
12	0x3db3693d	0.08760307
13	0xbd73fd2d	-0.05956762
14	0xbbd5d6a4	-0.0065258313
15	0xbd80354e	-0.06260167
16	0xbcdcd687	-0.026957763
17	0xbc74e860	-0.014947981
18	0xbd724cc0	-0.059155226
19	0x3d17f906	0.03710272
20	0x3bbe468b	0.005806749
21	0xbd17383f	-0.036918875
22	0x3d01f081	0.031723503
23	0x3c709653	0.014684278
24	0xbdb68b30	-0.08913267
25	0xbbefe584	-0.0073210616
26	0x3d882c1c	0.06649038
27	0xbd8d7230	-0.06906545
28	0xbd058fdd	-0.0326079
29	0x3d396cdc	0.045269832
30	0xbcd992ac	-0.026559196
31	0x3d6c7acd	0.0577343
32	0x3d05bcf0	0.032650888
33	0xbd5e2ef9	-0.054244015
34	0xbc25a940	-0.010111153
35	0xbcbfa7df	-0.023395477
36	0x3b2b178e	0.002610657
37	0x3d46138e	0.048358493
38	0x3d0cd159	0.034379337
39	0x3dae7b5c	0.08519623
40	0x3d97e128	0.07415992
41	0x3cd6553e	0.026163694
42	0xbcd737d5	-0.02627174
43	0xbd9e1c86	-0.07720284
44	0xbd947e68	-0.072506726
45	0xbda9bf10	-0.082883954
46	0xbcf43b0d	-0.029813314
47	0x3ccf46cf	0.025302319
48	0xbc286307	-0.010277516
49	0x3d9c2b45	0.076254405
50	0xbdb92f12	-0.09042181
51	0xbd48326c	-0.04887621
52	0x3c8bef78	0.017081961
53	0xbd3391d7	-0.043840256
54	0xbd88ce8c	-0.06680021
55	0xbc2a8ec7	-0.010410017
56	0x3db0f898	0.086411655
57	0x3d8d05f0	0.06885898
58	0xbc33966e	-0.010961158
59	0x3d59018b	0.052979987
60	0x3c00de4a	0.007865498
61	0xbdb7081f	-0.08937096
62	0xbd8f9b30	-0.070120215
63	0x3d240f96	0.040053926
64	0xbd806f8b	-0.06271275
65	0x3d5b8a52	0.05359871
66	0xbdb82702	-0.08991815
67	0xbdc322ac	-0.095280975
68	0xbd63e2e4	-0.0556363
69	0x3d9782e6	0.07398014
70	0xbdbef8a1	-0.09324766
71	0xbd3a09e8	-0.045419604
72	0xbd6fd72e	-0.05855482
73	0x3d3c0f33	0.045912933
74	0xbcc8b0a2	-0.024498288
75	0xbd13468d	-0.035955954
76	0xbd2b2916	-0.04178723
77	0xbcc1c434	-0.023653127
78	0xbd86de41	-0.0658536
79	0xbb0792d1	-0.0020686875
80	0xbc815980	-0.015789747
81	0x3d0d118c	0.034440562
82	0x3d1b4d06	0.037915252
83	0x3d1650bf	0.0366981
84	0x3ca3cf5c	0.019996338
85	0x3d356e74	0.04429479
86	0xbb77ae38	-0.0037793051
87	0xbb043158	-0.0020171013
88	0xbd296294	-0.041353777
89	0xbc786d48	-0.015162773
90	0x3d8c02c4	0.06836465
91	0x3cc5f964	0.02416677
92	0x3db27ac3	0.08714821
93	0xbdb82c1d	-0.08992789
94	0xbd22e75d	-0.039771426
95	0xbd958f92	-0.073027745
96	0xbd5bf79f	-0.053702947
97	0x3d95c1ef	0.073123805
98	0x3d405cb0	0.046963394
99	0xbd8d4d64	-0.06899527
100	0xbda71bfa	-0.08159633
101	0x3da41d06	0.08013348
102	0x3d747c95	0.059689123
103	0xbd6d4fb9	-0.057937358
104	0xbc2c0d67	-0.010501242
105	0xbd32c9ec	-0.0436496
106	0xbbbb51e1	-0.005716548
107	0x3cfed5e2	0.031107847
108	0x3cd2db7c	0.025739424
109	0x3d8db917	0.06920069
110	0x3c606ade	0.013697354
111	0xbc8716fd	-0.016490454
112	0x3d0036cf	0.03130227
113	0x3c6392ec	0.013890009
114	0xbdbeeaed	-0.09322152
115	0x3d889b4f	0.06670248
116	0xbd9d850f	-0.076913945
117	0x3c5dc4f5	0.013535728
118	0xbc9477ad	-0.018123472
119	0xbb42c7b6	-0.0029721088
120	0x3daa9800	0.08329773
121	0xbd867644	-0.06565526
122	0xbcb8152e	-0.022471037
123	0x3d436dc4	0.047712103
124	0x3bf61f6b	0.0075110695
125	0xbd706050	-0.0586856
126	0x3d92253f	0.071360104
127	0xbd8ef78f	-0.06980812
128	0xbca20b31	-0.019780727
129	0x3bda8b5a	0.006669444
130	0x3cbc2424	0.022966452
131	0x3d4a9980	0.049462795
132	0x3daddda4	0.0848954
133	0xbdaf6350	-0.08563864
134	0xbd001952	-0.031274147
135	0x3d57a8a5	0.052651066
136	0x3d166c24	0.036724225
137	0xbd57c612	-0.05267913
138	0xbdbb9e33	-0.091610335
139	0x3be7a63d	0.0070693777
140	0x3d72b117	0.059250917
141	0x3d56d0a6	0.052445076
142	0xbd82d822	-0.0638888
143	0x3d980df3	0.074245356
144	0xbddb3367	-0.107031636
145	0xbd923be6	-0.07140331
146	0xbd74dd7d	-0.05978154
147	0x3c8290a6	0.015938114
148	0xbd7cfd83	-0.061765205
149	0xbd9f79c3	-0.07786896
150	0x3d35b695	0.044363577
151	0x3d34efb8	0.044173926
152	0xbd25d9bf	-0.040490862
153	0x3d82ad5d	0.06380723
154	0xbdb68870	-0.08912742
155	0x3d4662b2	0.048433967
156	0xbd4e156f	-0.05031341
157	0xbcb55856	-0.022136848
158	0x3d8d1571	0.06888855
159	0x3cf33bd5	0.029691616
160	0xbd9030ef	-0.07040583
161	0x3c8c5cc0	0.01713407
162	0xbda05e70	-0.078305125
163	0xbdbd1c5f	-0.09233927
164	0x3d6e3350	0.058154404
165	0xbd297660	-0.041372657
166	0x3be784d5	0.0070653954
167	0xbc33a2e3	-0.010964128
168	0x3da0166b	0.07816776
169	0xbc2cb7f2	-0.010541903
170	0xbccb8424	-0.024843283
171	0xbc1ccdd9	-0.009570562
172	0x3d071ec8	0.03298834
173	0x3dadf305	0.08493618
174	0x3dacd858	0.08439702
175	0x3d6eb417	0.058277216
176	0x3b899f82	0.004199923
177	0x3c49de27	0.012321032
178	0xbd109240	-0.035295725
179	0xbd000938	-0.03125879
180	0xbd46984c	-0.048485085
181	0x3d40a2ea	0.047030367
182	0xbdc10c9c	-0.09426233
183	0x3d9ae129	0.07562477
184	0xbd4024d0	-0.046910107
185	0xbb375805	-0.0027976048
186	0xbce7f50c	-0.02831509
187	0xbcef017e	-0.029175516
188	0xbda2120a	-0.07913597
189	0x3d94f9fc	0.07274243
190	0x3d1a07a0	0.037604928
191	0xbd9ddf31	-0.07708586
192	0xbc19b3c1	-0.009381236
193	0xbd39d3a0	-0.045367837
194	0x3db0c456	0.08631198
195	0x3d98bf9b	0.07458421
196	0x3d1faa0a	0.03898052
197	0xbdafb635	-0.08579675
198	0x3d4b8bf7	0.049694028
199	0xbd89da78	-0.06731123
200	0xbd90ab86	-0.070639655
201	0xbd0a5359	-0.033770893
202	0x3d6cf3d9	0.05784974
203	0xbd180bfd	-0.037120808
204	0xbcbfffd5	-0.02343742
205	0x3cba6f31	0.022758098
206	0x3cd122f7	0.025529368
207	0xbda74ff7	-0.08169549
208	0x3d90da2a	0.070728615
209	0x3d7820dd	0.060578216
210	0x3d166499	0.03671703
211	0x3b3e0385	0.0028993797
212	0xbca4e69c	-0.020129494
213	0xbd90cd22	-0.07070376
214	0xbd264968	-0.04059735
215	0xbd992e26	-0.07479505
216	0x3d3e2c70	0.046429098
217	0xbc77cc34	-0.015124369
218	0x3d44e2b2	0.048067756
219	0x3db7440d	0.089485265
220	0xbdafb100	-0.08578682
221	0xbc837f46	-0.0160519
222	0x3dac3859	0.08409185
223	0xbd5d278f	-0.053992804
224	0x3da7e8d5	0.08198706
225	0x3d361984	0.044457927
226	0xbdb3e981	-0.08784772
227	0xbd501409	-0.050800357
228	0x3d832105	0.06402782
229	0xbd565f6e	-0.052337103
230	0xbd93e509	-0.07221419
231	0x3d15ce3e	0.03657364
232	0x3d914085	0.07092384
233	0xbd27845c	-0.040897712
234	0xbc89f9c7	-0.016842736
235	0x3d884272	0.066532984
236	0xba98894d	-0.0011637599
237	0x3d98bdda	0.07458086
238	0x3da37eed	0.079831935
239	0x3d41fe07	0.0473614
240	0x3d021feb	0.03176872
241	0xbd134a7c	-0.035959706
242	0x3dba93af	0.091102
243	0xbdafbec1	-0.08581305
244	0xbcf2ea39	-0.029652702
245	0xbc911126	-0.017708372
246	0xbd9078ac	-0.07054266
247	0x3cdf2c0f	0.027242688
248	0x3d86263e	0.06550263
249	0xbdad3466	-0.0845726
250	0x3bfb6788	0.007672254
251	0x3d800497	0.062508754
252	0xbdb07125	-0.086153306
253	0x3c53205b	0.012886132
254	0xbd7db2ab	-0.06193797
255	0x3cc8c8c8	0.024509802

fc2.bias f4 [84]
0	0xbdb0c53a	-0.08631368
1	0xbd8520b0	-0.06500375
2	0xbd8dbbb3	-0.069205664
3	0x3e47321b	0.19452707
4	0x3e6885b3	0.22707252
5	0x3d92d1b8	0.07168907
6	0x3d895869	0.06706316
7	0x3ebd48a0	0.3696947
8	0x3e57ce20	0.21074724
9	0xbcec2e61	-0.028830709
10	0xbdb9d937	-0.090746336
11	0x3dcbe67d	0.099560715
12	0x3e7a3b99	0.24436797
13	0x3dd2cd83	0.102931045
14	0xbe620ac1	-0.22074415
15	0xbd801745	-0.06254438
16	0x3e8b1029	0.27160767
17	0xbdbf7a8b	-0.09349545
18	0x3bfb464c	0.007668292
19	0xbd6a6d88	-0.057233363
20	0xbe0198f2	-0.12656
21	0x3d5e9617	0.054342356
22	0xbd5eab33	-0.054362487
23	0x3dcbf0ba	0.09958024
24	0xbcd989bc	-0.026554935
25	0xbd9319e0	-0.0718267
26	0xbd362fc8	-0.04447916
27	0xbd7d051b	-0.061772447
28	0xbd8bed62	-0.068323866
29	0x3decd59c	0.1156418
30	0x3e7b5a05	0.24546058
31	0x3ebc182c	0.36737192
32	0x3d567981	0.05236197
33	0x3c4afc28	0.01238922
34	0x3ede8f37	0.4346864
35	0xbcf92c1d	-0.030416543
36	0xbda28bb7	-0.07936805
37	0x3e851b4b	0.25997385
38	0x3c485fae	0.012229843
39	0x3cfe3a5c	0.031033687
40	0x3dff1df4	0.12456885
41	0xbd10c8eb	-0.03534786
42	0xbd9ea4a5	-0.07746247
43	0xbd4874c9	-0.0489395
44	0x3e8b5770	0.27215147
45	0x3daa3164	0.08310202
46	0x3e68096f	0.22659849
47	0xbd40046d	-0.04687922
48	0x3e77a42f	0.24183725
49	0x3e16b2ea	0.14716688
50	0xbd145be7	-0.036220457
51	0xbde4058b	-0.1113387
52	0xbd9f512b	-0.077791534
53	0x3dc31771	0.095259555
54	0xbd4200ab	-0.04736392
55	0xbdb87ecb	-0.09008559
56	0xbd7256e8	-0.05916491
57	0xbdce5aa5	-0.10075883
58	0xbd315855	-0.04329713
59	0x3d3f2760	0.04666841
60	0xbdefe1df	-0.11713003
61	0x3d02c4f6	0.031926118
62	0x3da570bb	0.08078142
63	0x3d0925b4	0.033483222
64	0x3bdbff44	0.0067137796
65	0xbdd3c287	-0.103398375
66	0xbb86f18c	-0.00411815
67	0x3c24a51a	0.010049129
68	0x3dd5f3c6	0.10446887
69	0x3e23b78c	0.15987986
70	0xbc8fed3a	-0.017569173
71	0x3ca2dc18	0.01988034
72	0x3e788cf8	0.24272525
73	0xbcd3d09d	-0.02585631
74	0xbd0ad086	-0.03389027
75	0x3e304a8a	0.17215934
76	0x3b289080	0.0025720894
77	0xbd81abc4	-0.0633159
78	0xbda6ab74	-0.08138171
79	0xbcbc4897	-0.022983832
80	0xbda8fe20	-0.082515955
81	0xbc0a5ca6	-0.008444941
82	0x3cec41e3	0.028840011
83	0x3d34789c	0.044060335

fc3.weight f4 [10, 84]
0	0xbc9945d2	-0.01871005
1	0xbcd82aeb	-0.026387652
2	0x3cdb0dc7	0.026739968
3	0xbe04ab8f	-0.1295607
4	0x3a8985e2	0.0010492171
5	0x3e7068ea	0.23477522
6	0x3bca6c71	0.006177478
7	0x3ea248c8	0.31696153
8	0xbe0c61ed	-0.1370923
9	0x3d9e4b3e	0.07729195
10	0x3d6f9f7d	0.05850171
11	0x3e79b8c1	0.24386884
12	0xbe750e13	-0.2393115
13	0xbebba20a	-0.36647063
14	0x3da0da03	0.078540824
15	0xbc99d28b	-0.018777153
16	0x3e4802f3	0.19532375
17	0x3e75e04d	0.24011345
18	0xbdb720d2	-0.08941807
19	0xbe04a1d8	-0.12952363
20	0x3d9c700c	0.07638559
21	0x3e33f7c3	0.17574982
22	0x3d765de4	0.060148135
23	0xbd3a35cf	-0.045461472
24	0x3d38ca57	0.04511484
25	0xbdb828f1	-0.08992184
26	0x3d3822a3	0.044954907
27	0xbdac9271	-0.08426369
28	0xbcd4f445	-0.025995383
29	0x3e208093	0.15674047
30	0xbd9a5f89	-0.07537753
31	0xbe054aee	-0.13016865
32	0xbe5b9444	-0.21443278
33	0x3d4780f1	0.048706952
34	0xbebbb023	-0.3665782
35	0xbdcbbced	-0.09948144
36	0x3b80d7cf	0.0039319764
37	0xbe1c3faa	-0.15258661
38	0x3d4432d8	0.04790005
39	0x3d8774ef	0.066141
40	0x3e7c1c33	0.24620132
41	0xbdca74b5	-0.09885541
42	0x3d981048	0.074249804
43	0xbce1b6dd	-0.027553016
44	0xbdf8fdd5	-0.121577896
45	0x3e1a8676	0.15090355
46	0x3d1aa4c9	0.037754808
47	0xbd655491	-0.055988852
48	0x3d13805e	0.036011092
49	0xbd17461c	-0.036932096
50	0xbe0c40e0	-0.13696623
51	0xbd54a1ed	-0.051912237
52	0xbd92df35	-0.071714796
53	0x3d91a39e	0.071112856
54	0x3dd02b73	0.10164537
55	0x3d47b990	0.04876095
56	0xbda4ca19	-0.080463596
57	0xbdf846a2	-0.12122847
58	0x3e032218	0.12805974
59	0x3e28e07b	0.16491883
60	0xbe3c643a	-0.18397608
61	0xbd6918c5	-0.056908388
62	0xbe1e1758	-0.15438592
63	0x3d34967e	0.044088833
64	0x3e2c334a	0.1681644
65	0x3d5facd2	0.054608174
66	0x3d14f61c	0.03636752
67	0xbe42017d	-0.1894588
68	0x3dd58efa	0.10427661
69	0xbd21f61c	-0.03954135
70	0x3dbdc458	0.09265965
71	0x3e82fab3	0.25581893
72	0x3ea56b59	0.32308462
73	0x3c02720f	0.007961764
74	0xbe0d20a6	-0.13781986
75	0x3d097d7a	0.03356693
76	0xbdf4387e	-0.119248375
77	0x3e1b0218	0.15137517
78	0xbd1757ce	-0.03694897
79	0xbd0f108e	-0.034927897
80	0xbd3edf9c	-0.04659997
81	0x3e0cf5e8	0.13765681
82	0x3d9e4089	0.07727153
83	0xbd47c818	-0.04877481
84	0x3cc29b11	0.023755582
85	0x3d663010	0.05619818
86	0x3d3454f8	0.044026345
87	0xbb9cbe84	-0.0047834534
88	0x3d2c2202	0.04202462
89	0x3e3a1036	0.18170246
90	0xbe9d28b6	-0.30695122
91	0xbdec6eb9	-0.11544556
92	0xbe172180	-0.14758873
93	0x3ddd4e68	0.108059704
94	0x3dba4553	0.09095254
95	0x3e608dcd	0.21929093
96	0xbcf3501e	-0.029701289
97	0x3e62f361	0.22163154
98	0x3dfa20d0	0.1221329
99	0x3dfdbaa8	0.123891175
100	0x3d306f46	0.04307487
101	0xbc3ff172	-0.01171528
102	0xbda022dd	-0.0781915
103	0x3e21f3fa	0.15815726
104	0x3e6671aa	0.22504297
105	0xbdf76408	-0.12079626
106	0x3d8a643c	0.067573994
107	0xbc0e86b5	-0.008699109
108	0x3c9ad5c7	0.018900765
109	0xbdb093a2	-0.08621909
110	0x3dd0535d	0.1017215
111	0x3df7b8c3	0.120957874
112	0x3d0180f8	0.031617135
113	0x3ccfb2bb	0.02535378
114	0xbea588d3	-0.3233095
115	0xbe9593a7	-0.29214212
116	0x3dc67c6c	0.096917
117	0xbdb5fd9a	-0.08886261
118	0xbe3b2fd1	-0.1827996
119	0x3cb28e63	0.02179641
120	0xbcdff3a6	-0.02733786
121	0xbe273cb9	-0.16331758
122	0x3d5763a5	0.052585263
123	0x3d69158c	0.056905314
124	0x3b454375	0.0030100022
125	0x3cf4c8aa	0.02988084
126	0x3ec89771	0.3917804
127	0xbd54b44a	-0.05192975
128	0xbe4bc354	-0.1989873
129	0x3d31c093	0.043396544
130	0xbd1a39f1	-0.037652913
131	0x3e9fd9e3	0.31220922
132	0xbe4dca97	-0.20096813
133	0x3d60db14	0.05489643
134	0xbd8f543b	-0.069984876
135	0x3d8a2b98	0.06746596
136	0x3cc3bf0d	0.023894811
137	0xbda41e5a	-0.080136016
138	0xbdadb3f0	-0.08481586
139	0x3d49727f	0.049181458
140	0x3e8453cf	0.2584519
141	0x3d9d6669	0.07685549
142	0x3ea6c625	0.32573047
143	0xbe323368	-0.17402422
144	0x3d908a97	0.07057684
145	0xbdf14db5	-0.117823996
146	0xbe2c650f	-0.16835426
147	0xbe09f019	-0.13470496
148	0x3e36ced5	0.17852338
149	0x3e816146	0.25269526
150	0x3d8d8323	0.06909778
151	0x3d98fb3b	0.074697934
152	0xbe4822dd	-0.1954455
153	0x3c073754	0.008252937
154	0x3cf02af5	0.029317359
155	0x3db9fbfc	0.09081265
156	0xbe05dc72	-0.13072374
157	0xbe0308a7	-0.1279627
158	0x3cd6163a	0.026133645
159	0xbe5d3c85	-0.21605118
160	0xbcc19709	-0.02363159
161	0x3e0f51f4	0.13996106
162	0xbabfedb4	-0.0014642985
163	0x3cde9406	0.027170192
164	0x3d47ebae	0.048808746
165	0xbe38cac8	-0.18046105
166	0xbd1b21ae	-0.037873916
167	0x3d38a15b	0.045075756
168	0xbd911b48	-0.070852816
169	0xbdd85d96	-0.10564725
170	0xbbb8f44b	-0.0056443564
171	0xbd2f23a4	-0.0427586
172	0xbd9d30b1	-0.07675303
173	0x3d55f22e	0.052232914
174	0x3e70f911	0.23532511
175	0x3e3f4797	0.18679653
176	0xbd3e90b4	-0.04652472
177	0xbd3a0e41	-0.04542375
178	0xbd1163b1	-0.035495464
179	0xbd8f8956	-0.070086166
180	0x3d12f206	0.035875343
181	0xbd9e7b7b	-0.07738396
182	0xbe8820fe	-0.2658767
183	0x3dcb067e	0.09913348
184	0xbaa22ae3	-0.00123724
185	0xbdcd1c1b	-0.10015126
186	0x3db257dc	0.08708164
187	0xbced8002	-0.028991703
188	0x3e424fe5	0.1897579
189	0x3e1fd1d4	0.15607387
190	0x3c29b12a	0.010357181
191	0xbe038d44	-0.12846857
192	0xbd529c18	-0.051418394
193	0x3e1502eb	0.14551894
194	0x3ccd3e9e	0.025054272
195	0xbcbd5373	-0.02311108
196	0x3dc12550	0.09430945
197	0x3c6a019d	0.014282611
198	0xbe0d78c4	-0.138156
199	0x3e61e679	0.22060575
200	0xbd72c2eb	-0.05926792
201	0x3b9914e4	0.00467168
202	0x3e768e2d	0.24077673
203	0x3db0da9d	0.08635447
204	0xbdfbeac9	-0.12300641
205	0x3d16282e	0.036659412
206	0x3d9ed6f5	0.077558435
207	0x3d016844	0.031593576
208	0x3e39569c	0.18099445
209	0xbd350d43	-0.0442021
210	0xbd9a5fa7	-0.075377755
211	0xbddea852	-0.10871948
212	0x3e8de5e5	0.27714458
213	0x3e315c4e	0.17320368
214	0x3e4c579b	0.19955294
215	0x3c502d7f	0.01270616
216	0x3e44945b	0.19197218
217	0xbd89d923	-0.06730869
218	0x3d72fa19	0.059320543
219	0xbe3a38d1	-0.18185736
220	0x3d2764f5	0.040867765
221	0x3d69bd17	0.057065096
222	0xbd91f74d	-0.07127247
223	0xbc84a277	-0.01619075
224	0xbe098329	-0.1342894
225	0xbca57c2d	-0.020200813
226	0xbe4845f5	-0.19557936
227	0x3d503dd4	0.050840214
228	0xbd9e76f1	-0.0773753
229	0xbd62375e	-0.055228584
230	0x3db21033	0.08694496
231	0x3d098be0	0.03358066
232	0xbe667471	-0.22505356
233	0x3deeffc7	0.116698794
234	0x3de66a88	0.11250788
235	0x3c9f2e1f	0.019431172
236	0x3da9275f	0.082594626
237	0x3e1f516d	0.15558405
238	0xbdf3fe4b	-0.11913737
239	0xbc4df5e5	-0.012570833
240	0xbb5689f2	-0.003273603
241	0x3dc34e5a	0.09536429
242	0xbd07ee94	-0.03318651
243	0x3daef9ce	0.0854374
244	0x3d039fbc	0.032134756
245	0x3d73339e	0.059375398
246	0x3ddc8dcb	0.10769232
247	0x3cb619cf	0.022229103
248	0x3dae081b	0.0849764
249	0xbcabc346	-0.020967137
250	0xbd49e9b4	-0.049295142
251	0x3d6514eb	0.055928152
252	0xbd1f477c	-0.038886532
253	0x3d8cd135	0.068758406
254	0x3d644706	0.055731796
255	0x3af01bc2	0.0018318819

fc3.bias f4 [10]
0	0xbe13a01d	-0.14416547
1	0xbf2492e7	-0.64286655
2	0x3dbbc9f2	0.091693774
3	0x3eb73a3d	0.3578662
4	0x3e975463	0.2955657
5	0xbe053084	-0.13006788
6	0x3da5f79d	0.08103869
7	0xbedd3e21	-0.43211463
8	0x3f0f8e7b	0.5607678
9	0xbdfbbff6	-0.12292473
